…
.0, warmup_momentum=0.8, warmup_bias_lr=0.1, box=6.0, cls=1.5, dfl=1.5, pose=12.0, kobj=1.0, nbs=64, hsv_h=0.015, hsv_s=0.7, hsv_v=0.4, degrees=0.0, translate=0.1, scale=0.5, shear=0.0, perspective=0.0, flipud=0.0, fliplr=0.5, bgr=0.0, mosaic=1.0, mixup=0.2, copy_paste=0.3, copy_paste_mode=flip, auto_augment=randaugment, erasing=0.4, crop_fraction=1.0, cfg=None, tracker=botsort.yaml, save_dir=runs/detect/test11s2
Overriding model.yaml nc=80 with nc=60

                   from  n    params  module                                       arguments
  0                  -1  1       696  ultralytics.nn.modules.conv.Conv             [3, 24, 3, 2]
  1                  -1  1     10464  ultralytics.nn.modules.conv.Conv             [24, 48, 3, 2]
  2                  -1  1     14760  ultralytics.nn.modules.block.C3k2            [48, 96, 1, False, 0.25]
  3                  -1  1     83136  ultralytics.nn.modules.conv.Conv             [96, 96, 3, 2]
  4                  -1  1     58320  ultralytics.nn.modules.block.C3k2            [96, 192, 1, False, 0.25]
  5                  -1  1    332160  ultralytics.nn.modules.conv.Conv             [192, 192, 3, 2]
  6                  -1  1    195072  ultralytics.nn.modules.block.C3k2            [192, 192, 1, True]
  7                  -1  1    664320  ultralytics.nn.modules.conv.Conv             [192, 384, 3, 2]
  8                  -1  1    777216  ultralytics.nn.modules.block.C3k2            [384, 384, 1, True]
  9                  -1  1    369792  ultralytics.nn.modules.block.SPPF            [384, 384, 3]
 10                  -1  1    558912  ultralytics.nn.modules.block.C2PSA           [384, 384, 1]
 11                  -1  1         0  torch.nn.modules.upsampling.Upsample         [None, 2, 'nearest']
 12             [-1, 6]  1         0  ultralytics.nn.modules.conv.Concat           [1]
 13                  -1  1    332370  ultralytics.nn.modules.conv.CBAM             [576, 3]
 14                  -1  1    249888  ultralytics.nn.modules.block.C3k2            [576, 192, 1, False]
 15                  -1  1         0  torch.nn.modules.upsampling.Upsample         [None, 2, 'nearest']
 16             [-1, 4]  1         0  ultralytics.nn.modules.conv.Concat           [1]
 17                  -1  1    147858  ultralytics.nn.modules.conv.CBAM             [384, 3]
 18                  -1  1     71952  ultralytics.nn.modules.block.C3k2            [384, 96, 1, False]
 19                  -1  1         0  torch.nn.modules.upsampling.Upsample         [None, 2, 'nearest']
 20             [-1, 2]  1         0  ultralytics.nn.modules.conv.Concat           [1]
 21                  -1  1     37074  ultralytics.nn.modules.conv.CBAM             [192, 3]
 22                  -1  1     18120  ultralytics.nn.modules.block.C3k2            [192, 48, 1, False]
 23                  -1  1     20832  ultralytics.nn.modules.conv.Conv             [48, 48, 3, 2]
 24            [-1, 18]  1         0  ultralytics.nn.modules.conv.Concat           [1]
 25                  -1  1     48912  ultralytics.nn.modules.block.C3k2            [144, 96, 1, False]
 26                  -1  1     83136  ultralytics.nn.modules.conv.Conv             [96, 96, 3, 2]
 27            [-1, 14]  1         0  ultralytics.nn.modules.conv.Concat           [1]
 28                  -1  1    213504  ultralytics.nn.modules.block.C3k2            [288, 192, 1, True]
 29        [22, 25, 28]  1    365728  ultralytics.nn.modules.head.Detect           [60, [48, 96, 192]]
myYOLO11s summary: 206 layers, 4,654,222 parameters, 4,654,206 gradients, 18.0 GFLOPs

[34m[1mTensorBoard: [0mStart with 'tensorboard --logdir runs/detect/test11s2', view at http://localhost:6006/
Freezing layer 'model.29.dfl.conv.weight'
[34m[1mtrain: [0mScanning /root/autodl-tmp/yolo_ger/train/labels.cache... 4000 images, 0 backgrounds, 0 corrupt: 100%|██████████| 4000/4000 [00:00<?, ?it/s][0m
…
