…
d=-1, save_txt=False, scale=0.5, seed=0, shear=0.0, show=False, show_boxes=True, show_conf=True, show_labels=True, simplify=True, single_cls=False, source=None, split=val, stream_buffer=False, task=detect, time=None, tracker=botsort.yaml, translate=0.1, val=True, verbose=False, vid_stride=1, visualize=False, warmup_bias_lr=0.1, warmup_epochs=3.0, warmup_momentum=0.8, weight_decay=0.0005, workers=8, workspace=None
Overriding model.yaml nc=80 with nc=51

                   from  n    params  module                                       arguments
  0                  -1  1       696  ultralytics.nn.modules.conv.Conv             [3, 24, 3, 2]
  1                  -1  1     10464  ultralytics.nn.modules.conv.Conv             [24, 48, 3, 2]
  2                  -1  1     14760  ultralytics.nn.modules.block.C3k2            [48, 96, 1, False, 0.25]
  3                  -1  1     83136  ultralytics.nn.modules.conv.Conv             [96, 96, 3, 2]
  4                  -1  1     58320  ultralytics.nn.modules.block.C3k2            [96, 192, 1, False, 0.25]
  5                  -1  1    332160  ultralytics.nn.modules.conv.Conv             [192, 192, 3, 2]
  6                  -1  1    195072  ultralytics.nn.modules.block.C3k2            [192, 192, 1, True]
  7                  -1  1    664320  ultralytics.nn.modules.conv.Conv             [192, 384, 3, 2]
  8                  -1  1    777216  ultralytics.nn.modules.block.C3k2            [384, 384, 1, True]
  9                  -1  1    369792  ultralytics.nn.modules.block.SPPF            [384, 384, 3]
 10                  -1  1    558912  ultralytics.nn.modules.block.C2PSA           [384, 384, 1]
 11                  -1  1         0  torch.nn.modules.upsampling.Upsample         [None, 2, 'nearest']
 12             [-1, 6]  1         0  ultralytics.nn.modules.conv.Concat           [1]
 13                  -1  1    249888  ultralytics.nn.modules.block.C3k2            [576, 192, 1, False]
 14                  -1  1         0  torch.nn.modules.upsampling.Upsample         [None, 2, 'nearest']
 15             [-1, 4]  1         0  ultralytics.nn.modules.conv.Concat           [1]
 16                  -1  1     71952  ultralytics.nn.modules.block.C3k2            [384, 96, 1, False]
 17                  -1  1         0  torch.nn.modules.upsampling.Upsample         [None, 2, 'nearest']
 18             [-1, 2]  1         0  ultralytics.nn.modules.conv.Concat           [1]
 19                  -1  1     18120  ultralytics.nn.modules.block.C3k2            [192, 48, 1, False]
 20                  -1  1     20832  ultralytics.nn.modules.conv.Conv             [48, 48, 3, 2]
 21            [-1, 16]  1         0  ultralytics.nn.modules.conv.Concat           [1]
 22                  -1  1     48912  ultralytics.nn.modules.block.C3k2            [144, 96, 1, False]
 23                  -1  1     83136  ultralytics.nn.modules.conv.Conv             [96, 96, 3, 2]
 24            [-1, 13]  1         0  ultralytics.nn.modules.conv.Concat           [1]
 25                  -1  1    213504  ultralytics.nn.modules.block.C3k2            [288, 192, 1, True]
 26        [19, 22, 25]  1    356278  ultralytics.nn.modules.head.Detect           [51, [48, 96, 192]]
naYOLO11s summary: 191 layers, 4,127,470 parameters, 4,127,454 gradients, 17.4 GFLOPs

Freezing layer 'model.26.dfl.conv.weight'
[34m[1mtrain: [0mFast image access ✅ (ping: 0.0±0.0 ms, read: 3974.9±506.5 MB/s, size: 836.9 KB)
[34m[1mtrain: [0mScanning /root/autodl-tmp/yolo_ger/train/labels.cache... 4000 images, 0 backgrounds, 0 corrupt: 100%|██████████| 4000/4000 [00:00<?, ?it/s[0m
…
